Restricted Boltzmann Machines and Deep Belief Nets/trained_rbm/rbm.vis--hid.bias_h.npy (npy, 4128 bytes, 1 tensors)

array f8 [500]
-1.9586163396499117 0.08610057986511585 1.6032320065993115 0.46757600995655196 -0.2255652098538309 2.5171290849609527 0.6521530879284722 0.39050161922503335
1.1071746859798843 0.29441857089042084 1.4427354900963651 1.0247534658554232 2.40277488206565 0.5874112443087479 0.29737434712722655 -17.97533303147458
1.9281358471195258 -1.3449733991837856 -0.2530757842004027 1.0399149646376116 0.015308135093623483 1.2921392667575577 -3.7317935011452272 0.21195406882723578
0.7656936014614484 1.1163787143949482 0.46765054358776714 0.6749585022141877 1.0990291331479796 1.8239316205053826 1.2851556737396563 3.28444419006626
-1.1267912640337232 0.9569906865490215 1.798508359321081 0.5842554069822032 2.0074614836850673 0.10500508640905779 2.4545433106657235 2.782033866851818
0.7486909491597371 0.594488199973468 1.1152494884043684 1.2898351050677206 1.2461156589200841 -1.363222400219316 1.2642392715041404 10.757557531118179
2.743495582619118 0.9264522849117853 0.039822327244335994 0.07208242864708675 0.25729802685315806 3.657470227257241 -50.17257330921369 -5.339420195836108
1.8807221064986497 -1.1768822255657567 4.09374085870308 0.4609084787964279 0.3042550535790905 0.42258478929544 -2.8625482152503343 1.0131027857760304
0.003777520228244012 0.8564775257078158 0.7660404681392426 1.7114166252484746 -7.6250793703060245 0.5900884309234442 -0.7553351531212237 1.3542165918020599
2.0935569061044945 1.188906365096784 0.915508789873025 0.8163713673130117 22.708170021972713 2.511876861692511 0.18251681969192393 0.8155189767735838
0.48976145570956575 -0.5371340632770455 0.3469263523635063 0.4934573075262973 0.4830503000326814 1.6858694384313564 -0.4497335022879273 1.5220541706641122
0.9273798804533229 7.176242686321151 1.6683722457914925 1.1306064179152402 1.7796663865282856 0.5515216381257183 1.434642209261512 1.3311373354028297
1.2696559280212292 1.5571609608785812 1.0866034860087752 0.34009862927565426 0.4917042749111925 -0.0640813003624522 0.6984410531939184 0.8608524927560418
0.4918612553858473 1.5316459616149285 -14.814064718183953 0.650557811039943 -2.0861535531302446 0.3238316593540928 0.5054869996886528 -2.134399532557176
5.401336055434524 3.06643365188315 1.5193350678939828 1.3534049731006705 1.7931606001531362 1.296880722518376 1.1089417620025106 1.3122293170422705
0.7805129056630927 -3.9843914115554893 6.287942544259374 1.191531918360624 0.5962983780511256 0.08755385655261454 -0.21147097764521697 1.2669722833358217
1.5496471921644925 0.8819211683251775 0.4968708173434571 0.3425902487571277 0.392990580935315 0.6884417077216544 1.2067049107573617 -6.014810053712033
1.1237486469646916 1.6968707991300844 -3.721260431882505 1.2947219696402588 1.6129656387988642 0.4472355942783582 -2.332031405283826 -2.2308615068186795
0.4500622560233256 -8.752092227247742 0.2298125301040013 -16.514883888410672 2.672366824763183 1.1048753806934457 -0.11526650446843444 0.6530172029204263
1.533352884344122 -0.2514778026794077 1.8488118981981398 -1.0488717352362757 1.5053768477716511 2.143799951661667 0.6558860223510469 1.6142185270962595
-0.1024944211006823 0.48113066659861137 1.972137781782526 1.6909616649037735 -0.04344788431603333 -0.17086247851081707 3.07694567406366 -30.194893431484896
0.49285003839113073 1.2159409176877363 1.4597415121994095 -0.16058146383958832 -2.4404936206173478 1.4844986661603299 0.9260840990063018 1.0282340208214262
1.3675593396603776 1.2909224223844111 1.6500747609657498 -0.6870130419369841 -1.5342568776729142 1.2974633193333684 1.4700660036538775 7.411750872726687
0.7262537696302962 1.4214140519428677 -0.8327016231593856 1.3304857539293302 0.6382799411736839 0.17648207094597598 -4.251306142658382 2.021720087534492
1.1059705252448948 0.4572922188227058 2.043188041107166 2.953121271290343 0.4169884960251336 -0.9338140664917426 -2.542029825594031 1.2083607321890826
0.6251745659130413 0.47664114105402877 1.1011948480304752 1.5459883666103214 1.5032646123841387 0.5080828808560603 -1.4381116256806306 0.9907750303119898
0.8647171563051356 0.8113376689014069 -5.710036579465338 1.4777051035688062 0.41623308507801077 0.8953443461985029 1.4679555149465888 0.7756396072344864
0.9478994822759804 1.038401984258611 -1.3559857388435979 1.3025473180601672 0.19241266752063166 0.13361871547639248 0.32179291576443514 -7.184151980609691
1.8778736807834073 -0.5075049737397805 1.405067951622697 0.4962423166730064 0.03786395591397095 -1.2550271366728638 0.4739568739771973 2.170922246520918
0.4710840700821211 0.11797301892429463 6.644480740041027 -1.5752296163586939 2.8318717215274503 -2.546880020062974 -1.4964072671050879 1.8595586198231122
3.858530842503235 0.7603662599085402 0.41025562261148363 1.1131960671922507 0.5936580928644695 0.9518580876705937 1.7276893609967887 0.8864789905456316
0.09657451365756993 7.565266064413562 1.1790552442704823 1.4830189907577358 -0.3394593299936924 1.1183691794526824 1.4571546290982735 1.6144698104933846
00000000: 5352 4316 7e56 ffbf 76f3 af06 b00a b63f
00000010: 78e9 c39a d6a6 f93f 7b15 caed c3ec dd3f
00000020: a502 b81f 52df ccbf d8bd dd92 1423 0440
00000030: 236c 1427 70de e43f eed1 e680 fafd d83f
00000040: fde1 b3cd fcb6 f13f 75cd 53fd c0d7 d23f
00000050: f4e0 2bcf 7115 f73f b4fc e4e3 6365 f03f
00000060: 50fa 9009 e238 0340 c97a 73aa 12cc e23f
00000070: a82b e569 2e08 d33f 51e4 f06c aff9 31c0
00000080: 58fa 59f9 a4d9 fe3f bebf b7d3 0285 f5bf
00000090: d737 23c6 6432 d0bf 26d5 bbdf 7da3 f03f
000000a0: f709 b81c df59 8f3f 3b9e 4939 9aac f43f
000000b0: b2c0 168d b6da 0dc0 7cfd ee98 4f21 cb3f
000000c0: 7011 21de 8f80 e83f e26d 44ed afdc f13f
000000d0: 18a1 aa8b fced dd3f b858 a592 4299 e53f
000000e0: 808c 8392 9f95 f13f da5f 43ec d22e fd3f
000000f0: d3b0 4f65 ff8f f43f 70f9 eeac 8a46 0a40
00000100: ee17 c746 5607 f2bf 91bf a9ee aa9f ee3f
00000110: d7dd 8db3 b0c6 fc3f d0fd 2f65 38b2 e23f
00000120: 8a41 63f7 470f 0040 f661 0a04 9de1 ba3f
00000130: 1866 6f9a e7a2 0340 9ef1 d3f8 9a41 0640
00000140: fe78 aeb8 46f5 e73f 77ce 171e 0c06 e33f
00000150: 6a3d f9d8 0fd8 f13f 33fa 9722 2aa3 f43f
00000160: 2786 21f9 16f0 f33f 89dd a14a c2cf f5bf
00000170: cadd 56f5 523a f43f 6ffb a994 de83 2540
00000180: 7f8e e0cf adf2 0540 da04 2043 7fa5 ed3f
00000190: 317f 5492 9763 a43f 44ce a779 fe73 b23f
000001a0: 9a37 aa24 9277 d03f ed4e 21c0 7f42 0d40
000001b0: 1e9e d7e1 1616 49c0 3bdf c2f7 905b 15c0
000001c0: 356a 4410 7017 fe3f 26c7 e074 82d4 f2bf
000001d0: f9b6 899a fd5f 1040 1b4e b846 867f dd3f
000001e0: 79f4 3030 ea78 d33f dde6 7312 a10b db3f
000001f0: 6ec9 bdad 7fe6 06c0 0e50 4644 ab35 f03f
00000200: 7da0 e3ba 08f2 6e3f f791 558e 4368 eb3f
00000210: 2b42 c24c 6783 e83f be5d 3466 f661 fb3f
00000220: 7f79 73ce 1480 1ec0 800d 1222 01e2 e23f
00000230: 0798 85a0 b42b e8bf ccd8 5704 dfaa f53f
00000240: 1d45 60c3 9abf 0040 ff8c 41ae c205 f33f
00000250: d290 f616 d94b ed3f 8c01 80d8 b61f ea3f
00000260: 6261 6ca1 4ab5 3640 3a63 64e5 5218 0440
00000270: a5fb c50d b65c c73f 5051 d040 bb18 ea3f
00000280: c04a c76e 4058 df3f cdf5 6ac6 3330 e1bf
00000290: b165 6196 0a34 d63f e30c 73f5 cd94 df3f
000002a0: 99a7 3dce 4bea de3f 8c37 763b 52f9 fa3f
000002b0: 0680 0f07 6fc8 dcbf 5de2 5b79 555a f83f
000002c0: 407e 3092 18ad ed3f 56a2 77f6 78b4 1c40
000002d0: 13a8 9318 a7b1 fa3f a77f 59c1 f616 f23f
000002e0: 28df fe75 8379 fc3f 6d29 d9b4 10a6 e13f
000002f0: 83d4 a363 4bf4 f63f c3a2 a0a9 564c f53f
00000300: 1d61 00bc 8250 f43f 964d 999c 21ea f83f
00000310: 5a09 4256 ba62 f13f b4d0 890a 2dc4 d53f
00000320: 7a01 0335 1578 df3f c985 57d1 a167 b0bf
00000330: 87da 340d a159 e63f 2127 e286 1a8c eb3f
00000340: 594f 83a1 a77a df3f 45fc 2232 9f81 f83f
00000350: e6da 3a17 cda0 2dc0 6a5d 529d 5ed1 e43f
00000360: 5f07 2946 71b0 00c0 9774 956c a8b9 d43f
00000370: dee8 8612 f32c e03f 3172 e70f 4013 01c0
00000380: 0d30 c3d6 f79a 1540 2c89 d15d 0e88 0840
00000390: 5c54 c449 324f f83f d460 1bf9 8ba7 f53f
000003a0: 9f22 622b c9b0 fc3f ea77 2000 06c0 f43f
000003b0: a882 8fb7 39be f13f 92c8 182b e4fe f43f
000003c0: afb9 7d33 f6f9 e83f b9c0 b89a 08e0 0fc0
000003d0: 59e2 0a69 da26 1940 fffb d7c5 8310 f33f
000003e0: d165 0c56 e014 e33f 4b3b 88f6 ed69 b63f
000003f0: 8d09 8522 7b11 cbbf 51da 9dba 8445 f43f
00000400: a0f4 aada 5acb f83f 7c6a f3bd b238 ec3f
00000410: 8dec b441 bbcc df3f 97c8 95a6 ffec d53f
00000420: be34 30f7 c126 d93f 9dbd 7be7 b607 e63f
00000430: ea01 face a94e f33f 7861 e15d 2a0f 18c0
00000440: 9c33 7adc dffa f13f 4cd1 bcfe 6126 fb3f
00000450: 6eac 7630 24c5 0dc0 2848 5062 2eb7 f43f
00000460: eb67 c30e b5ce f93f 5117 c20a 829f dc3f
00000470: fa82 d714 00a8 02c0 3688 edea cdd8 01c0
00000480: b82f b2eb d1cd dc3f af35 7f3b 1281 21c0
00000490: 59fc 803a 7f6a cd3f 0ef6 356e cf83 30c0
000004a0: 952f 9adb 0161 0540 0dbe a3ce 91ad f13f
000004b0: 4f23 040b 1b82 bdbf 9798 4855 84e5 e43f
000004c0: afc3 b708 9d88 f83f 4f64 8b5a 3618 d0bf
000004d0: 9277 f3c8 bb94 fd3f 019e 88ba 2dc8 f0bf
000004e0: 645b 9508 0616 f83f 096d cc96 8026 0140
000004f0: 37d7 fcae 04fd e43f 919c 67ce d6d3 f93f
00000500: b85e a60a 133d babf a232 8947 d8ca de3f
00000510: 1564 bf58 e08d ff3f 9cd2 98d1 2d0e fb3f
00000520: 847d 6f14 cd3e a6bf 99a2 a85a d2de c5bf
00000530: 7360 8db1 959d 0840 cf6e 3289 e431 3ec0
00000540: 5c39 2ee3 da8a df3f 9464 b576 7e74 f33f
00000550: 2929 78ea 195b f73f 9675 c4f3 ee8d c4bf
00000560: 642f f584 2186 03c0 ecd3 61ac 81c0 f73f
00000570: 757c d21e 7ba2 ed3f 7200 4184 a573 f03f
00000580: 0ee4 f2e6 85e1 f53f bc06 1d45 9ea7 f43f
00000590: bbd8 e4ca b466 fa3f 316f 61c6 02fc e5bf
000005a0: b54a 94f0 508c f8bf 25be c4e5 68c2 f43f
000005b0: 257a 0aee 6385 f73f a2d7 5105 a2a5 1d40
000005c0: 3815 a58b 783d e73f 1eb6 32a9 1cbe f63f
000005d0: 3076 d9df 7da5 eabf ddb9 0e6e ab49 f53f
000005e0: b214 210e ca6c e43f 778b 85e9 f696 c63f
000005f0: b301 c065 5601 11c0 e403 cd94 7b2c 0040
00000600: ac44 4426 0eb2 f13f 55c3 2395 4644 dd3f
00000610: 9311 c1f8 7258 0040 0183 8a0b fe9f 0740
00000620: 7d1d 4f84 f0af da3f c70e 8409 cee1 edbf
00000630: 4610 b3bb 1356 04c0 145d 2810 7255 f33f
00000640: 7966 5c17 6e01 e43f d054 30d8 4981 de3f
00000650: 8608 2d7d 7e9e f13f 9567 294c 5ebc f83f
00000660: acc8 b631 5f0d f83f 53e5 9d07 3742 e03f
00000670: 32bb 0456 8102 f7bf da44 1cd6 6db4 ef3f
00000680: 97dc 5350 c3ab eb3f ae38 3e6a 7af6 e93f
00000690: bf11 3fd4 13d7 16c0 745d 4f1b aea4 f73f
000006a0: 6516 fb17 90a3 da3f 2498 b22f a9a6 ec3f
000006b0: e2da 0aec be7c f73f aebd 5127 0ad2 e83f
000006c0: 4fa9 884b 3155 ee3f 38e0 2766 4b9d f03f
000006d0: 76cf 221a 1eb2 f5bf 90f9 48db 3bd7 f43f
000006e0: 7f2a 2b71 faa0 c83f ac64 8d06 6b1a c13f
000006f0: 1ebc 5250 4198 d43f 58d9 3856 92bc 1cc0
00000700: f7bd cf45 c50b fe3f 5aa1 1812 7b3d e0bf
00000710: fc08 4e88 287b f63f 1d1e 4022 6fc2 df3f
00000720: 8f04 b288 e762 a33f baa3 b955 9714 f4bf
00000730: bc92 5c36 4f55 de3f c3ba 977b 0c5e 0140
00000740: 85d5 aacc 3d26 de3f 9c19 17d2 7a33 be3f
00000750: 2a83 55c2 f293 1a40 2f38 5ff8 2334 f9bf
00000760: c36b 735c aca7 0640 e60c c8a1 0260 04c0
00000770: d068 1bbf 48f1 f7bf a229 128a c0c0 fd3f
00000780: 1045 196b 45de 0e40 9f3f 699f eb54 e83f
00000790: c273 87cc a041 da3f 4a06 eaad a6cf f13f
000007a0: e079 bb41 3fff e23f 3d4e 9f17 9f75 ee3f
000007b0: b40d 7299 9da4 fb3f b081 1f30 095e ec3f
000007c0: 6d4f c979 1bb9 b83f 8ec7 701b d542 1e40
000007d0: ad1a 2508 69dd f23f 246c 0a1f 72ba f73f
000007e0: 5d47 29a0 b3b9 d5bf 74a8 a914 d7e4 f13f
000007f0: d212 535f 8150 f73f aa2c c74b ded4 f93f
